model.pt (torch, 9993 bytes, 4 tensors)

fc.0.weight f4 [128, 10]
000000 f6 f7 0a bd c7 c8 03 3e c7 22 55 3e e4 3e 96 bd
       -0.03392788 0.12869559 0.20814048 -0.07336214
000010 13 78 e2 3d 7e 6f 84 3e fa 60 3f 3e fa 3a 68 3e
       0.110580586 0.25866312 0.18689337 0.22678748
000020 9b ff bf bd c5 43 78 be 3a 3c e5 bd c0 35 92 3e
       -0.09374925 -0.24244602 -0.11193128 0.28556633
000030 29 8e a2 3e 34 ce bf 3d 22 d9 81 be 9b ca 96 be
       0.31749085 0.09365502 -0.25360972 -0.2945145
000040 16 26 90 be 6b 64 4c 3d 08 d8 bf bd 6c 50 91 be
       -0.28154057 0.049900454 -0.093673766 -0.2838167
000050 25 83 1e bd fa c4 91 be bf fc 30 bd 64 65 13 3d
       -0.038699288 -0.28470594 -0.043209787 0.035985366
000060 a4 f0 2e 3e 4e f0 8e 3e 27 1d 2c bd 20 be 00 3e
       0.17083985 0.27917713 -0.04201999 0.12572527
000070 17 80 9c 3e 2b 88 41 3e 3c 2e aa bc d8 bc 82 3e
       0.30566475 0.188996 -0.020774 0.255347
000080 a2 59 7d 3e f0 bb d4 3c 76 3a 80 3e dd ff 0e 3c
       0.24741223 0.025968522 0.25044602 0.008727995
000090 c9 de 49 3e 99 ba cb 3c 9d 24 ae bd d9 3a 85 3e
       0.19713892 0.02486925 -0.08503077 0.2602146
0000a0 e7 1e aa 3d dc 3f 9e be 0e 7a f3 bd 12 e6 61 bd
       0.083066754 -0.30908096 -0.118885145 -0.055151053
0000b0 90 8e 81 be 1b 12 55 be 62 6b 8d bd 87 82 f6 bd
       -0.2530408 -0.20807688 -0.06905247 -0.12036615
0000c0 6e ab 10 3e 2c 7d 14 be ff 44 73 3c f5 b6 97 be
       0.14127895 -0.14500874 0.014847993 -0.29631773
0000d0 8a 0f 67 be d0 33 fa 3d 01 03 9a 3e 33 5b dd 3b
       -0.22564521 0.12216914 0.30080417 0.0067552566
0000e0 47 d5 0c bc b8 7e 28 be ee ee 8c 3e 47 90 60 bd
       -0.008595771 -0.1645459 0.2752604 -0.054825094
0000f0 bd 0e ac bd ff 20 a7 bd b4 8a f4 3b 38 6c ce bd
       -0.084012486 -0.081605904 0.0074628238 -0.10079235
000100 38 dc 18 be 57 e9 5e be 33 4f 05 bd 98 8d 5d 3e
       -0.14927757 -0.217687 -0.032546233 0.21636045
000110 0c 23 b1 3d 79 40 79 3d a7 ae 92 be f2 f4 59 be
       0.08649263 0.0608525 -0.28648874 -0.21284845
000120 af 05 5d 3e 58 53 c7 3d 4f fc 81 3d ba 7e c1 3d
       0.215842 0.097326934 0.06346952 0.09447999
000130 8d 58 1a be fe 6a 40 bb b4 77 80 3e 2e 9a 1f be
       -0.15072842 -0.0029360647 0.25091326 -0.15586159
000140 85 79 cf bd e7 ae 90 3e b4 84 1b 3e 85 bf b9 3d
       -0.101306 0.2825844 0.15187341 0.090697326
000150 22 af 87 be 6d ac dd bd f6 db 8f be fc f4 82 be
       -0.26500803 -0.10823903 -0.28097504 -0.25577533
000160 af 8e 16 be 0e 43 d3 bd 15 1d 35 be 9c b7 12 3e
       -0.14702867 -0.10315524 -0.17686875 0.14327854
000170 13 0f 29 3e a5 6f 18 bc f5 58 60 be dc 5c bc bd
       0.16509657 -0.009303962 -0.21908934 -0.09197399
000180 a1 f9 d2 bd 0d 09 50 be c4 8b 9a 3a 0f 01 94 3e
       -0.10301519 -0.20315953 0.0011790921 0.28907058
000190 67 a6 36 be 24 f1 9d be b3 3d 3d 3e 10 b1 8e 3e
       -0.17836915 -0.30848038 0.18480568 0.27869463
0001a0 31 77 56 be 95 21 4d 3d c4 ce 01 3d 8b 99 63 be
       -0.20943905 0.050080854 0.031691328 -0.2222654
0001b0 59 fa 98 3e 61 ad a1 3d 38 05 30 3e c1 47 01 3e
       0.298785 0.078943975 0.17189491 0.12625028
0001c0 90 1c f2 bd 8f c6 8b 3e e0 dc 9e bc 8e f7 62 be
       -0.11821854 0.27299926 -0.01939243 -0.22164747
0001d0 da 1a 62 3d 1f 17 cd bd 61 a4 73 bd 9f a3 9d 3e
       0.05520139 -0.100141756 -0.059482936 0.30788895
0001e0 dc 93 8c 3e 0c 1b 06 3e 60 a0 44 3d 0f 57 a5 be
       0.27456558 0.13096255 0.048004508 -0.32292983
0001f0 01 d0 7a be 32 bc 69 be c7 f2 42 be 71 23 80 3e
       -0.2449341 -0.22825697 -0.19037925 0.2502704
000200 84 6f 42 be b7 0d 8d 3e 8e 4f 4e bc 6d 86 f9 3d
       -0.18987852 0.27549526 -0.0125922095 0.12183843
000210 90 06 39 be d3 0c 8e bc 87 bc 10 be 34 87 71 be
       -0.1806891 -0.0173401 -0.14134417 -0.23586732
000220 2a 98 8a be 6f f2 df 3c de be a3 be 9f 6c 36 3e
       -0.27069217 0.027337281 -0.31981558 0.17814873
000230 a7 46 2a 3e de 93 90 be 47 0a 5d 3e e9 11 f0 bd
       0.16628514 -0.28237814 0.21585952 -0.11722166
000240 82 94 55 be 43 0f d3 bd ba 8f b3 3d ac 1c 6e be
       -0.20857432 -0.10305645 0.08767648 -0.23253125
000250 27 66 84 be 1f e2 95 be 0e 91 21 3e 15 18 52 be
       -0.25859186 -0.2927408 0.1577799 -0.20516999
000260 d1 0e 13 3e d5 1e 96 be 2a cb 74 be 40 d2 0b 3d
       0.14361121 -0.29320398 -0.23905626 0.034136057
000270 79 d5 9a be 8a a7 5a bc 95 0d 15 be df 2a 30 bd
       -0.30240992 -0.0133456085 -0.14555962 -0.043009635
000280 f6 11 eb 3b 18 dc c0 3d 5b 17 f7 3d 0d d1 71 be
       0.007173772 0.094169796 0.120650016 -0.23614903
000290 03 1f 82 be 18 1c 9b 3e 75 35 68 3e 43 e9 d0 3c
       -0.25414285 0.3029487 0.22676642 0.025501853
0002a0 73 62 47 be 01 34 3b be f1 79 a4 be da dd b0 3d
       -0.19471149 -0.18281557 -0.32124284 0.08636065
0002b0 e5 e9 0c 3b 49 46 48 3e 25 a1 e0 3d 8d 7a a3 bd
       0.0021501717 0.19558062 0.10968236 -0.07982359
0002c0 7d 5c 73 3d 64 27 22 be 41 92 8f 3e 45 0c 78 bd
       0.059414376 -0.15835339 0.2804127 -0.060558576
0002d0 c3 af be bd d6 c9 de bd 40 1a a2 3e 0f a5 eb bd
       -0.09310868 -0.10878341 0.31660652 -0.11506092
0002e0 80 0a 42 be c1 82 9e 3d f5 09 50 bd f7 1d 38 bd
       -0.18949318 0.07739783 -0.050790746 -0.04495045
0002f0 7e e3 76 3e 9c 0e 2e bc c5 50 3c 3e b2 f7 17 3e
       0.24110219 -0.0106236 0.18390186 0.14840582
000300 39 34 0e 3e 6a db 54 be a0 fd ce bd 93 b4 94 be
       0.13887109 -0.20786825 -0.10106969 -0.29044017
000310 53 92 88 3d 89 71 36 3e d0 53 99 3e 01 43 9a 3e
       0.06668534 0.17816748 0.29946756 0.30129245
000320 58 e0 5c 3d f2 36 c4 3d d5 b2 94 be ec 39 1f 3d
       0.05392489 0.095807925 -0.29042688 0.038873598
000330 56 a6 77 3e 64 be 3f be 7e 31 86 be 23 6c 0f be
       0.24184546 -0.18724972 -0.26209635 -0.14006095
000340 69 9c d5 3d 5d 7e 97 3e c6 70 4f 3e 09 03 87 3e
       0.104302235 0.29588595 0.20257863 0.26369503
000350 4f b3 38 3e ff e6 84 3d 7c ab 95 be cf 08 5e 3c
       0.18037151 0.064893715 -0.29232395 0.013551905
000360 f3 36 8f be c3 be 71 be a2 c9 6d be 00 d5 9a bd
       -0.2797161 -0.23607926 -0.23221448 -0.07560158
000370 0d 45 2f 3d 92 29 8a 3e 68 c0 52 3e bd 14 8a 3e
       0.04279046 0.2698484 0.2058121 0.26968947
000380 97 39 1e be b7 bc 93 3b 3a a9 8d 3e ea 3c 47 3e
       -0.15451656 0.0045085805 0.27668172 0.1945683
000390 7f e6 14 3e 74 a5 8c 3c b3 84 9d 3c c5 f8 89 3e
       0.14541052 0.017168738 0.019228315 0.2694761
0003a0 16 6a 10 3e 19 5e 81 be ff 8e 11 3e bf 42 6c 3e
       0.14102969 -0.25267103 0.14214705 0.23072337
0003b0 3a e2 8a 3e 3a 1d 95 3b ea ce 21 3e 5b 35 eb bd
       0.27125722 0.004550603 0.15801588 -0.11484786
0003c0 be 21 4a 3d 54 28 26 ba 28 b7 a8 3b ad 6c 8a bd
       0.049348585 -0.0006338407 0.005148787 -0.067590095
0003d0 2c 83 a4 bc c0 44 9b be 82 f3 b9 3d e3 c9 71 3e
       -0.020082079 -0.3032589 0.090796486 0.2361217
0003e0 91 be 85 3c b1 06 78 3e 37 fe 53 be 4c 2f 61 be
       0.01632622 0.24221303 -0.20702444 -0.21990699
0003f0 ef 5a 90 bd 96 a7 8e 3d 37 1c 64 3d b1 83 52 be
       -0.07048594 0.06965558 0.05569097 -0.20558049

fc.0.bias f4 [128]
000000 8a 8a 95 be 2e d5 96 be 0b f7 89 3c 43 a5 6a 3d
       -0.2920726 -0.29459518 0.016841432 0.057286512
000010 13 52 3b 3e da 19 99 be ab 74 9b be fa c9 7f 3d
       0.18293028 -0.29902536 -0.30362448 0.06244848
000020 f5 c9 9f 3e a2 9c 45 be b9 e2 66 bd 49 8f 62 3d
       0.31208768 -0.19298032 -0.056368563 0.05531243
000030 67 a7 e5 3c 93 7e 8e be 51 7e 13 bd 45 5a 6c be
       0.028033925 -0.27830943 -0.036009137 -0.2308131
000040 fc c3 cd 3d 81 9f 19 be 47 6b 8f 3b c5 b6 c5 3d
       0.10047147 -0.15002252 0.004376802 0.09654001
000050 06 b4 3d 3e 19 fe 54 be ff ea 56 bd 3f 8f 6f 3e
       0.18525705 -0.20800056 -0.052470203 0.23394488
000060 7e 7f 94 be 07 86 8d be 73 9e 2f be 4e 4f fc bc
       -0.2900352 -0.27641317 -0.17150287 -0.030799534
000070 01 0e 7d 3e 48 8f 6e 3e 29 51 0b bd 9f b7 7c bd
       0.24712373 0.23296845 -0.034012947 -0.061698552
000080 72 5e 0d 3e 3e 23 66 3e e2 39 69 be 59 45 99 3b
       0.1380556 0.22474381 -0.22775987 0.0046774563
000090 8e 04 a2 bd 5d d2 7b bc 37 28 c5 bd 93 c1 a3 3e
       -0.07911025 -0.015369979 -0.09626811 0.31983623
0000a0 d6 95 62 bd ea 91 77 3c 5c fe fe 3d a3 ba 8f be
       -0.055318676 0.015110472 0.12450859 -0.2807208
0000b0 45 37 43 3e c0 09 42 be 38 fc 94 be 11 7e 5e be
       0.19064052 -0.18949032 -0.29098678 -0.21727778
0000c0 c5 d0 5b ba 93 24 71 bd 15 40 60 3c d1 03 1c be
       -0.0008385296 -0.05887277 0.013687153 -0.15235831
0000d0 c2 d9 3b bd 86 ad 7c 3e 27 54 83 be 6f 35 49 bc
       -0.045861967 0.24675569 -0.2565014 -0.012280806
0000e0 ae 83 89 3e 53 73 06 3e 59 cd 2f be 33 49 4f 3e
       0.26858276 0.1312993 -0.17168178 0.20242767
0000f0 91 14 9d 3e f8 22 56 be 27 c1 99 3e d6 9e 90 be
       0.30679753 -0.20911777 0.30030176 -0.28246182
000100 90 1b 81 3e aa b0 7c 3e cf fb 9d be 05 0a b7 bd
       0.2521634 0.24676767 -0.30856177 -0.08937458
000110 ef 16 9f 3e 62 c9 2c be a5 99 8c be 2c 56 a3 3d
       0.31072184 -0.16873696 -0.2746097 0.0797542
000120 fb 52 94 3e c4 43 26 be ed fa 6c be 70 72 8e 3e
       0.2896956 -0.16236788 -0.23142596 0.27821684
000130 6e 1d 9e 3e cc 5a 6d be 9e 2d 7f 3d 18 4f 7b be
       0.30881828 -0.23179168 0.062299363 -0.2454189
000140 7d f3 1b be bc 24 de 3d 17 0c 42 3d de 26 b8 3c
       -0.15229602 0.1084685 0.04737481 0.02247947
000150 cf 71 23 3e 98 cc 2f 3e 6f bc 8d 3e 9f 28 8f 3e
       0.15961383 0.1716789 0.27682826 0.2796068
000160 17 db 5b 3e fa 1d 11 3e 5f 67 a4 bc a2 0e 7d be
       0.21470295 0.14171591 -0.020068822 -0.24712613
000170 b0 bb 3c 3d f0 e7 1a 3c 61 bf 76 3d 8f 53 77 be
       0.04607743 0.009454712 0.060241107 -0.24152969
000180 a2 ec 79 be e4 8a f3 3c e0 82 90 3e a6 9b d5 bd
       -0.24406675 0.029729314 0.2822485 -0.10430078
000190 76 c0 1a 3e ea 3d 9a 3e 83 6f 82 bb 39 5c 13 be
       0.1511248 0.30125362 -0.0039805784 -0.14390649
0001a0 82 7d 87 3c f7 d2 e9 bd 7d da f1 3d 71 62 9c 3e
       0.016539339 -0.114171915 0.118092515 0.30543855
0001b0 d4 e0 b9 bd 55 bd 4d 3e a5 ac 82 be 45 a7 1d 3e
       -0.09076086 0.20091756 -0.25522342 0.1539584
0001c0 7d d5 8c be 2f 5c a0 be 64 74 92 bd 8a 78 80 be
       -0.2750663 -0.3132033 -0.07151106 -0.25091964
0001d0 2c b1 8c be c0 c6 83 3e 8d ac fc 3d b7 4c 6d bd
       -0.2747892 0.25737572 0.12337599 -0.05793449
0001e0 11 59 cb 3d 5a 2f 57 3e 84 00 0c 3b c7 7d 1b be
       0.099290974 0.21014157 0.0021362612 -0.15184699
0001f0 ca 3d 72 be 82 c2 97 3e 2d 53 97 be 36 64 98 be
       -0.23656383 0.29640585 -0.29555646 -0.29763955

fc.2.weight f4 [4, 128]
000000 9f 1d fc 3c 8a 75 3f 3d 85 8f e9 bc 68 60 55 bd
       0.030775843 0.046742953 -0.028510818 -0.052093893
000010 72 b6 a7 bd 27 4f 9e bd ec 28 0a 3d 35 fc 54 3b
       -0.081890956 -0.07729941 0.033730432 0.003249896
000020 13 11 2b 3d 5a 90 bc bc 2d 73 a4 3d 0b a5 c0 3d
       0.04176433 -0.023018051 0.080297805 0.094064794
000030 4c f4 eb bc c0 57 8e 3d ed ae 31 bd 48 e1 1d 3d
       -0.028803013 0.06950331 -0.043379713 0.038544923
000040 dd 49 31 bd 5a c2 5c 3d ed 9c c1 3c ef 65 63 bc
       -0.043283332 0.053896286 0.023634398 -0.013879283
000050 f1 01 29 bd ea 65 48 3d 22 d3 1a 3d b4 ed 1a bd
       -0.041261617 0.048925318 0.03779901 -0.037824348
000060 97 99 85 3d 9c 29 b0 bd f6 59 bb 3d 8a d3 86 3d
       0.065234356 -0.08601686 0.09148018 0.065833166
000070 7e 67 0b bd 59 43 82 3d 51 25 61 3d 7d 59 88 3c
       -0.034034245 0.06360502 0.05496723 0.016644234
000080 36 b0 58 3d 69 31 84 3d fa 57 f8 bb d4 f5 f3 3c
       0.052902423 0.06454737 -0.007578847 0.029780306
000090 3c 40 0a 3d e7 a9 1f bd 9a d7 58 3c fe d7 fe 3c
       0.033752665 -0.03898039 0.013234997 0.031108852
0000a0 50 7d 46 3d 2b 40 80 bd 9c 1d cc 3b a4 a1 84 bd
       0.04845935 -0.06262239 0.0062291157 -0.06476143
0000b0 25 8e 83 bd 1c d2 a0 3c df de 23 bd e6 8f bc 3d
       -0.06423596 0.019631438 -0.04000747 0.09207134
0000c0 f0 03 bc 3d 69 d6 7e bc a3 07 8b 3d 57 8a 82 3d
       0.091804385 -0.015554049 0.06788566 0.063740425
0000d0 b7 2f c5 3b ef f6 a8 3b cf 21 07 3b d8 2b 39 3b
       0.006017651 0.00515639 0.0020619517 0.0028254893
0000e0 a1 7c f9 3b 8d 41 22 bd 19 f4 82 3d 72 c7 6d bd
       0.007613734 -0.039613295 0.06394214 -0.058051534
0000f0 0e 82 91 bd b1 f3 8a bd 90 32 96 3d 12 a0 69 bd
       -0.07104884 -0.06784762 0.07333863 -0.05703742
000100 f1 89 2c 3d cd 84 b3 3d 1f a4 df bc 4b 77 8d bd
       0.04212374 0.08765564 -0.027299939 -0.06907519
000110 08 0e f3 3c ac 63 3f 3d 27 bc a8 bd 11 de a8 bd
       0.029669777 0.046725914 -0.08239012 -0.08245481
000120 7e 56 5b bc d3 ef bd 3d 52 4d 49 3b a0 a7 6a 3c
       -0.013387321 0.092742585 0.0030716253 0.0143221915
000130 76 e7 d9 bb 69 01 69 bc f7 ae 34 3d 1d 82 2f 3d
       -0.0066499067 -0.014221528 0.044112172 0.042848695
000140 51 6e bd bc 53 7c 93 3d 45 fc 59 3d b6 9e b5 bd
       -0.023123892 0.07201447 0.0532191 -0.08868162
000150 b9 38 b3 bd 12 a1 84 bd 38 58 f7 3c 6f 5b 28 bd
       -0.08751053 -0.06476034 0.030193433 -0.041102823
000160 c5 36 c0 3c 4d 1e 85 bd 35 6d 11 3a 5e b7 9a 3d
       0.023463616 -0.0649992 0.0005547584 0.07554506
000170 a4 18 be 3d bf 9c 6f bd a3 fb 66 3d 25 45 9a 3d
       0.092820436 -0.058499094 0.056392323 0.075327195
000180 39 b9 87 3d 34 de 2c 3d ce 3a e3 3c 27 ff 38 bd
       0.06627125 0.042204097 0.027738001 -0.045165207
000190 a1 2c 27 bd 1b 3f 01 bc 58 04 da 3b 98 79 d7 3b
       -0.040814046 -0.007888581 0.00665335 0.0065757744
0001a0 e6 60 94 bd bb 2f 9d bc 5f 5e 90 3d 02 17 5f bd
       -0.072450444 -0.019187799 0.0704925 -0.0544653
0001b0 9a e2 a8 bc 86 c9 94 3c 4f df 80 bd 5e da 19 3c
       -0.020615865 0.0181625 -0.06292593 0.009390442
0001c0 8e fe b9 3d 0c 45 c8 bc 91 68 9c 3d b6 6e e0 3c
       0.090817556 -0.024446987 0.07637132 0.027396541
0001d0 7c ec 9c bd d0 8b a7 3d e7 ea b6 3d c9 58 9a bd
       -0.07662293 0.08180964 0.08931523 -0.07536466
0001e0 72 47 f0 bb 62 29 d5 3c 4b 71 0d bc c2 b6 90 b9
       -0.0073327357 0.02602071 -0.008632968 -0.00027601985
0001f0 98 05 84 bc d9 89 cb 3c 7a 31 61 bd f7 35 63 3d
       -0.016115949 0.024846004 -0.054978825 0.055471387
000200 f8 20 c1 3c 52 91 a4 bd f2 1c 7a 3d 9c 05 77 bd
       0.023575291 -0.0803553 0.06106276 -0.060308084
000210 67 8d ac 3d 97 e2 aa bd 51 25 8b bd 9a 30 1d 3d
       0.08425408 -0.08344 -0.06794227 0.03837643
000220 8f a2 56 bd e8 c1 f7 bc 8e ec 2c 3d fd 1f 47 bd
       -0.05240112 -0.030243829 0.042217784 -0.04861449
000230 b8 cf d0 3c e8 49 3b 3c 82 29 1a bd c8 23 8f bc
       0.025489673 0.011431195 -0.03763724 -0.017473117
000240 e0 17 ef 3b ee 3c 3e bd 1c 97 cd 3c 56 d0 35 3d
       0.0072965473 -0.046444826 0.025096469 0.044388138
000250 44 c6 ae bc 4b 39 14 bd 9c c5 fa 3c a0 1d bb bc
       -0.021334775 -0.03618745 0.030611806 -0.022841275
000260 20 de 0a 3d 18 8b bb bc 70 c3 86 bd a9 3d 2d bd
       0.03390324 -0.022893474 -0.065802455 -0.04229513
000270 88 62 b9 3c 00 49 46 3c e4 c4 95 bd cb ed 88 3d
       0.022629991 0.0121023655 -0.073129445 0.066859804
000280 eb 67 8f bd e0 44 31 bd 72 8e 4e 3d dc a0 e8 3c
       -0.07002243 -0.043278575 0.050428815 0.028397016
000290 39 ae 18 bd e0 1d f2 bb 71 4d 30 bd a0 9d 93 bd
       -0.037275527 -0.0073888153 -0.043042604 -0.07207799
0002a0 f0 d0 e0 3b 40 79 4b bb 66 33 39 3d 98 ba c6 3c
       0.006860845 -0.0031047612 0.045215033 0.024258897
0002b0 50 42 8f bc bc 90 bd 3c 6d d6 88 3d 89 e1 13 bd
       -0.017487675 0.023140304 0.066815235 -0.03610376
0002c0 d3 1c ad bd 66 b9 39 3d 27 a3 82 3d 14 b5 11 3d
       -0.084527634 0.045342825 0.06378775 0.03557308
0002d0 40 99 ab 3b aa 52 4e 3d 24 df 9b 3c 58 b3 69 bd
       0.0052367747 0.050371803 0.0190273 -0.0570558
0002e0 fb df ab 3d 89 43 8b 3d 74 1d 90 bc 50 43 13 3d
       0.0839233 0.06799991 -0.01759217 0.035952866
0002f0 ca 36 1a 3d 8c 40 6f bd 38 ad 09 bd 5a 0d 6b 3d
       0.037649907 -0.058411166 -0.03361246 0.05738578
000300 26 1b 9e bd e8 88 ad bc 2a 1c 07 3d 20 f7 ff 3b
       -0.07720022 -0.021183446 0.032985844 0.007811442
000310 31 ae ae 3d 5f a8 a3 3d 34 6c 93 bd 80 ba 39 bd
       0.08529318 0.079910986 -0.071983725 -0.045343876
000320 8c 6c 8d bc 5a 7f 70 3d 30 6d 47 bd df 39 24 bd
       -0.017263673 0.058715202 -0.048688114 -0.040094253
000330 66 f5 a1 bd 42 37 45 bd 70 e8 c9 3b 1a 36 1c bd
       -0.07908134 -0.0481484 0.006161742 -0.038137533
000340 fa 5d 5b 3d 11 3e ac 3d c7 6e 90 bd 22 43 11 bd
       0.05355642 0.08410276 -0.07052379 -0.035464413
000350 30 1f 85 bb 28 1f 32 3c ca 24 85 bd 08 68 4a bc
       -0.0040625557 0.010871686 -0.065011576 -0.012353905
000360 78 b7 1a bc 23 79 a4 3d 47 97 98 3d 58 6f 26 3c
       -0.009443156 0.080309175 0.07450729 0.010158382
000370 15 d5 81 3d 3a 99 30 3d 3a d4 43 3d 7f 69 60 bd
       0.0633947 0.04311488 0.047809817 -0.05478811
000380 44 fa ec bc 19 77 a9 3d 57 f0 9c 3d a0 0d e9 3c
       -0.02892793 0.08274669 0.07663029 0.02844888
000390 c0 6e ff 3b 68 5f 02 bc a3 31 89 3d db ac b3 3d
       0.007795185 -0.007957317 0.066989206 0.08773204
0003a0 9b 35 9f 3d 2e 81 60 3d c0 d2 b1 bb 84 37 55 bd
       0.07773896 0.054810695 -0.0054267347 -0.052054897
0003b0 09 56 aa 3d 84 67 56 bd 7a b6 25 3d 6e d3 1b bd
       0.08317191 -0.052344814 0.040457226 -0.038043432
0003c0 94 09 9f bd bd 3f 8f bd 9b ff 31 bd a2 48 48 3d
       -0.07765499 -0.06994579 -0.043456655 0.048897393
0003d0 ef 14 91 3d b8 bf 18 3c ca 75 a3 bd 22 da 11 bd
       0.07084071 0.009323053 -0.07981451 -0.03560842
0003e0 d3 52 89 3d 83 91 a7 bd 12 bd 99 bd 6a 5f 9d bd
       0.067052506 -0.08182051 -0.075067654 -0.076842144
0003f0 1e 10 27 bd d8 de 94 bc 49 04 8e 3d aa af 43 3d
       -0.040786855 -0.018172666 0.06934411 0.04777495

fc.2.bias f4 [4]
000000 86 d0 e2 bc fa a8 5a 3d 1d 59 22 bd 42 a1 b0 3d
       -0.027687322 0.053383805 -0.039635766 0.086245075
